saves/best_avg_actor.pth (torch, 672293 bytes, 6 tensors)

l1.weight f4 [400, 111]
000000 56 f6 5d be 0a 80 22 be 9f e1 cd bf 5f ee 0c c0
       -0.21676001 -0.15869156 -1.6084479 -2.202049
000010 ae 42 58 bf 5a 1d 3d bf 59 e2 d6 be 52 ac 88 3f
       -0.84476745 -0.7387291 -0.41969565 1.0677588
000020 f2 1b 24 3f bd 9f 0a 3f 50 41 7c 3e 86 95 cc be
       0.6410514 0.5414999 0.2463429 -0.39957827
000030 fe 03 eb bd d8 e6 de bb 60 ce 32 be 93 62 b1 3e
       -0.11475371 -0.006802421 -0.17461538 0.3464552
000040 ce 8d be be 27 7a c1 be d5 73 b0 3e 5e da b4 3d
       -0.37217563 -0.37788507 0.34463373 0.08830713
000050 6f de 15 3e 8f 23 7a bd 93 2d 1e 3e aa 64 ea 3d
       0.14635633 -0.061069068 0.15447073 0.114449814
000060 e4 b9 8f bd 54 54 0b bd f8 5b 5f 3d dc 53 b4 bd
       -0.07017878 -0.03401597 0.054531068 -0.088050574
000070 aa bf 74 bd 44 d9 c4 bc 66 8b 17 bd 75 f3 a7 3d
       -0.059753098 -0.024029382 -0.036998175 0.082007326
000080 02 ff 7b bd 7a b8 0d 3f 09 1e eb 3c 8c 46 ec 3d
       -0.06152249 0.55359614 0.028700845 0.11536893
000090 2c 74 b8 3e 6c 0f 94 be 05 7d fc be ba 6d 3c 3d
       0.36026132 -0.28918016 -0.49314132 0.04600308
0000a0 01 92 a3 3b 8f 51 47 bd b2 8c 83 3c a7 7f b5 bd
       0.0049917703 -0.048661765 0.0160583 -0.088622384
0000b0 38 75 8c bd 9a 5c 48 bf 3f 38 35 bf 17 20 33 bf
       -0.06858295 -0.782663 -0.7078895 -0.6997084
0000c0 6f 73 48 be e6 95 2b be 85 74 28 3e 44 03 40 be
       -0.19575284 -0.167564 0.16450699 -0.18751246
0000d0 3e 8d 24 bf 26 4b ad 3e 3c 8b 72 be 54 5a 67 be
       -0.6427802 0.33846396 -0.23685926 -0.22593051
0000e0 fa fa 1f be b2 b5 96 bd 32 ba 86 bd b8 d5 48 bd
       -0.15623084 -0.073588744 -0.06578483 -0.049031943
0000f0 07 e9 2f 3d 97 59 1c 3d bb 4a 66 bd 01 1c 73 3e
       0.04294684 0.038171377 -0.056223612 0.23741151
000100 d0 2a 0f 3e 18 e1 05 be 52 9a 0b be c4 98 4b bc
       0.13981175 -0.13074148 -0.13633087 -0.012426559
000110 8d 22 45 bf 37 90 31 3f ed 01 02 3f 4b df 66 bd
       -0.77005845 0.6936068 0.5078419 -0.056365293
000120 1b 56 62 3e e8 e7 93 be 48 9a e9 bd e9 84 ab 3d
       0.22103159 -0.28887868 -0.1140638 0.0837496
000130 6a be 9a 3c 3a 09 a9 bd bd 0e 0f 3c 44 38 73 bd
       0.018889625 -0.08253713 0.008731541 -0.05937983
000140 09 29 b5 bd 62 c4 cd 3e 96 6a 82 bf fa ee 58 3e
       -0.088457175 0.4018889 -1.0188777 0.21184912
000150 14 eb 3e bf 13 ba de 3e fa ab 46 be aa 2d 20 bf
       -0.7457745 0.43501338 -0.19401541 -0.6256968
000160 7a d9 e2 3e 85 49 f2 bd c0 79 cc be 32 90 bc 3e
       0.44306546 -0.11830429 -0.39936638 0.36828762
000170 02 6e 8d be 0b 5e 11 3d 68 64 c0 bd 7d 32 7c bd
       -0.27622992 0.035490077 -0.09394151 -0.061571587
000180 0b 1f 42 3d 08 be a2 3c 7d a3 97 bd 2f f9 7f 3f
       0.047392886 0.019866005 -0.0740423 0.999896
000190 db 74 3e be 64 a5 71 bf 5e 05 cb be a1 3c 90 be
       -0.18599264 -0.9439299 -0.39652532 -0.28171256
0001a0 18 ab 17 3f 6e 02 71 bc 21 81 9a 3d c4 a0 1f 3e
       0.59245443 -0.014710052 0.07544161 0.15588671
0001b0 ac f5 22 3f 5b 90 83 3e a2 22 51 be d1 62 a3 3e
       0.63656116 0.25696072 -0.20423368 0.31911328
0001c0 db 62 11 be 40 cd 46 bf eb 58 bc bf de b8 05 c0
       -0.14197867 -0.77656937 -1.4714636 -2.0894084
0001d0 2b 5c b8 bd 4e a7 c8 3d 56 6b 1d bf 51 72 fe 3d
       -0.09001955 0.09797536 -0.61491907 0.12424148
0001e0 42 85 df 3e 99 12 7d 3f 62 56 b0 be 2d 5f ea 3d
       0.43656355 0.988565 -0.34440905 0.114439346
0001f0 12 50 25 bf 7b 99 06 bf 94 41 7e 3e 34 9a e5 be
       -0.645753 -0.5257794 0.24829704 -0.4484421
000200 f7 91 1c bd e9 2d 0d bf 5d 91 83 bd aa 9a 50 be
       -0.03822514 -0.5514818 -0.0642421 -0.203715
000210 62 e1 9a bc 1a 26 4c 3d fc 09 24 bd cd 25 18 be
       -0.018906299 0.049841024 -0.040048584 -0.1485817
000220 56 c8 7c bd ad e8 d9 bd 97 5c 9d 3c d5 32 77 3d
       -0.061714493 -0.106400825 0.01920919 0.06035121
000230 04 22 b8 3d d9 e4 76 3d df 8d b8 3d 54 ef e0 bb
       0.08990863 0.06027684 0.09011435 -0.0068644676
000240 1c 16 99 be c5 d9 5a 3e 81 50 72 3e e8 61 66 3d
       -0.2989968 0.21372135 0.23663522 0.056245714
000250 78 b4 8d be 85 29 da bf 02 eb b5 bd 90 10 a4 bd
       -0.2767675 -1.7043921 -0.08882715 -0.080109715
000260 3c b7 9d bc e4 34 55 3d 13 30 52 3d 3b 79 bb bd
       -0.019252412 0.052052394 0.05131538 -0.09153982
000270 72 5e 11 bf 3f 56 b3 bf 46 1e 67 bf 07 79 cc 3e
       -0.5678474 -1.4010695 -0.9028057 0.39936087
000280 ae b6 ab bf 72 1a ca 3e ab d6 e9 3e 92 f0 09 3f
       -1.3415124 0.394733 0.4567159 0.53882706
000290 72 6f 3a 3e ba c0 30 3e f5 0b 1e 3f bf 88 89 be
       0.18206576 0.1726102 0.61736995 -0.2686214
0002a0 cd f5 ae bd 1d e6 d1 bb bd f2 aa 3d 09 94 1e bd
       -0.085429765 -0.0064056055 0.0834708 -0.038715396
0002b0 56 88 af 3d df cb 0c 3d 10 f3 38 3e 14 38 bc be
       0.08570926 0.034374114 0.18061471 -0.36761534
0002c0 69 cf 0e bf 65 55 a5 3e 32 3b 91 3e 4c 6d a5 bf
       -0.5578523 0.32291713 0.28365475 -1.292398
0002d0 22 11 ac bd 64 75 08 3f 0f 55 0b be a2 81 ea be
       -0.08401705 0.53304124 -0.13606666 -0.45802027
0002e0 b4 0d 81 3d ca 67 67 bd 2d fb ba bc e7 85 a3 bc
       0.06301442 -0.056495465 -0.022824848 -0.01996131
0002f0 f1 30 a0 bd d0 a7 52 3d e7 56 9a 3d 3a 01 85 3d
       -0.07821835 0.05142957 0.075361066 0.064943746
000300 39 f6 4e 3f ee 1c b8 bc af 64 d9 3e 53 86 23 3f
       0.80844456 -0.022474732 0.42459628 0.6387684
000310 50 3c 7c 3e f8 47 eb be 92 2d 73 be 71 d5 1a be
       0.24632382 -0.45953345 -0.23747852 -0.15120484
000320 43 31 f4 be 68 5b 68 3e 09 1c 9d be 09 80 9b 3e
       -0.47693834 0.22691119 -0.30685452 0.3037112
000330 2b bf 61 bd f0 0e 88 3d 45 c0 0b bd b6 f6 a3 3d
       -0.055113953 0.06643474 -0.03411891 0.08006041
000340 82 95 0c 3d 8a ea 44 3c 18 60 d3 bd 80 79 2c bf
       0.03432227 0.012018809 -0.10321063 -0.67372894
000350 c2 5d af be 8f f6 24 3f ac a9 c1 3f 93 c1 d9 3e
       -0.3425122 0.6443872 1.5129905 0.42530498
000360 f7 ea 9a be 00 45 11 bf 2b d6 2b bd 53 f4 33 bd
       -0.3025739 -0.5674591 -0.041952293 -0.043934178
000370 84 c8 fe be 0a 08 98 3e 74 d5 89 3b 2e b2 94 be
       -0.49762356 0.29693633 0.004206354 -0.2904219
000380 b4 c9 bc bf 7c 19 af 3e 57 b7 af bf 7d bb 1e be
       -1.4749055 0.3419913 -1.3727826 -0.15501209
000390 60 bf 48 bf 7e 3a 91 be 59 ee 7b 3f 94 28 d4 3e
       -0.78417015 -0.28364938 0.98410565 0.4143721
0003a0 78 02 ec 3e fe 27 16 be f5 83 fe be dd e7 5c 3e
       0.46095634 -0.14663693 -0.4971005 0.21572824
0003b0 7d 3e e6 3d ef 0d 30 be 0e 19 7c bf 4e ce d3 3e
       0.112423874 -0.17192815 -0.9847573 0.41368335
0003c0 ea 9d 91 be 7e ff 0e be 85 d3 c5 3d 89 5f 83 bc
       -0.2844079 -0.1396465 0.09659485 -0.016036766
0003d0 11 2f 26 3d bd bd 60 bd 2a 27 b7 3e c1 eb 77 be
       0.04057223 -0.05486845 0.35772067 -0.24211027
0003e0 a5 63 77 3e 53 32 84 bc e1 c1 4c bd 0b 8a 4d 3c
       0.24159105 -0.016137278 -0.049989585 0.012545119
0003f0 22 be a0 3d 0a 4b e3 bc 41 d0 66 bd 5d 56 84 3e
       0.07848765 -0.027745742 -0.05635095 0.2584714

l1.bias f4 [400]
000000 f4 46 12 bf 53 08 20 bf 01 38 3e bf 49 5b 0c bf
       -0.57139516 -0.625127 -0.74304205 -0.5482679
000010 f2 84 dd bd 9a b7 9c 3e d6 24 2c bf 21 4f 92 bf
       -0.10816373 0.30608827 -0.6724371 -1.1430398
000020 f1 ed 5c be 29 09 a3 bf 76 20 39 bf c8 91 26 3e
       -0.21575142 -1.273717 -0.72315156 0.16266549
000030 49 eb 81 bf 1f 4d 5c be ea f3 9e be cd f8 0b bf
       -1.0149928 -0.21513794 -0.31045467 -0.54676515
000040 6b ad 2e bf 80 5e 6c bf 2f 2d c1 be f0 a6 93 be
       -0.68233365 -0.92331696 -0.37729785 -0.288383
000050 e4 c2 46 bf d4 c9 94 be 31 0a 21 bf 28 19 0a bf
       -0.7764113 -0.29060233 -0.62906176 -0.53944635
000060 49 81 49 bf 01 70 e1 be 56 04 76 bf 03 a4 4f be
       -0.787129 -0.44030765 -0.96100366 -0.2027741
000070 2d fe 40 bf 87 76 32 bf 29 79 91 3e f8 4b 47 bf
       -0.7538784 -0.6971211 0.2841275 -0.77850294
000080 9a d3 ce be a9 23 27 bf d8 13 a8 be 46 76 90 be
       -0.40395814 -0.6528879 -0.3282764 -0.28215235
000090 43 6a 1d bf 29 9a 26 bf b0 b2 de 3d f2 09 dc be
       -0.6149027 -0.6507898 0.10873926 -0.42976338
0000a0 8c 3b 11 bf 5b e0 1d bf ad 43 15 bf 00 27 d7 be
       -0.56731486 -0.61670464 -0.5830639 -0.42021942
0000b0 cf 37 15 bf a3 2a 89 be 15 e2 aa 3c 3b f9 14 bf
       -0.5828828 -0.26790342 0.020859757 -0.58192796
0000c0 04 50 47 bf d8 dd 7d bd 46 85 34 bf 4b d1 99 be
       -0.7785647 -0.061979145 -0.7051586 -0.3004249
0000d0 29 24 1b be 1c b5 17 bf 70 7c d9 be 00 ab 34 bf
       -0.15150513 -0.59260726 -0.4247775 -0.70573425
0000e0 9d 57 c9 be ee 35 1c 3e 62 31 42 bf ea 2d 44 be
       -0.39324656 0.15254948 -0.758566 -0.1915814
0000f0 9f f7 43 bf 35 87 00 bf 25 07 14 be 24 6d 38 be
       -0.76549715 -0.5020631 -0.1445585 -0.18010384
000100 f4 d1 65 be 8f d5 d6 be 93 16 d7 3c 74 e3 55 be
       -0.22443372 -0.41959807 0.026255881 -0.20887548
000110 14 35 90 be 0c 96 13 bf 50 cf b3 3e af 7b 36 bf
       -0.28165495 -0.5765083 0.35119104 -0.71282476
000120 8d f6 b7 be 7c 07 db be de ce b6 be b5 df 75 bf
       -0.3593029 -0.42779148 -0.35704702 -0.96044475
000130 83 6c 15 be a2 4d 07 bf 26 3d aa 3e cb 24 0a bf
       -0.14592175 -0.52852833 0.33249778 -0.5396239
000140 5a 93 01 bf 7a 20 31 bf 83 ac 17 be 5e 4a 9c bf
       -0.50615466 -0.6919018 -0.14811902 -1.2210195
000150 9b 05 0d be 8f f2 d3 be 0b 58 1d bf 8e 47 05 bf
       -0.1377167 -0.41395995 -0.6146247 -0.5206231
000160 18 62 d0 be c1 b8 e4 be e6 75 03 bf a7 09 70 be
       -0.4069984 -0.44672206 -0.51351774 -0.23441182
000170 d1 b5 51 bf f1 f2 c9 be 59 64 81 bf b5 11 1a bf
       -0.81918055 -0.39443162 -1.0108749 -0.6018327
000180 42 14 f8 be 6e d2 4a be 98 8a 24 bf 16 dd a6 be
       -0.48452955 -0.19806835 -0.6427398 -0.3259055
000190 30 ff 43 be 7e 6c e7 be d2 a0 66 bf 58 8f 08 bf
       -0.19140315 -0.4519996 -0.9008914 -0.53343725
0001a0 a9 f1 d8 be 9c 06 2a bc d3 45 93 be 89 9e 3d be
       -0.42371872 -0.010377552 -0.2876421 -0.18517508
0001b0 f5 6d 10 bf ca e5 2b be b6 6c a3 be 42 e8 57 bf
       -0.5641778 -0.16786876 -0.31918877 -0.8433877
0001c0 2d 7d 95 3e 5f b4 a9 be 9d ef 7b be f0 57 30 bf
       0.29197064 -0.33145425 -0.24603124 -0.6888418
0001d0 f0 df 76 3e 9a ba e4 bc d3 bf 8b bd 34 f7 a2 be
       0.24108863 -0.02792101 -0.06823697 -0.31829226
0001e0 21 0a ac 3b 9c 8a f9 be 52 b3 60 bf 5a 6e 5b bf
       0.005250231 -0.48738563 -0.8777362 -0.8571526
0001f0 21 8b ba be a7 45 cd be f5 70 09 bf 24 ec 0e bf
       -0.36434272 -0.40092203 -0.53687984 -0.5582907
000200 c1 65 6c be 5b e1 9f be a7 e9 11 bf ef 63 01 bf
       -0.23085691 -0.3122662 -0.5699715 -0.5054311
000210 7c 42 ba be 9e 5b ec be 1f 7c e5 be c5 c8 b4 be
       -0.3637885 -0.46163648 -0.4482126 -0.35309425
000220 fe 26 c5 be 47 90 3e be 23 4f 19 bf cc c0 b5 be
       -0.3850631 -0.18609725 -0.5988638 -0.35498655
000230 56 39 08 be 63 fa 40 bf 6c d0 36 bf 85 1e 1f bf
       -0.13303122 -0.7538206 -0.71411777 -0.62155944
000240 1c 4b 20 bf 40 ab 05 bf eb 93 63 be d3 61 2c bf
       -0.6261461 -0.5221443 -0.22224395 -0.6733677
000250 a4 68 ff be 40 ab 57 bf f1 f0 8d be 6b 0c 97 be
       -0.49884522 -0.8424568 -0.27722886 -0.29501662
000260 17 9b 28 bf 0b a3 27 bf d8 16 97 be f2 2a 53 bf
       -0.6586165 -0.6548316 -0.29509616 -0.82487404
000270 6c 21 9b be d8 ea 56 bf 48 c0 5c be 9a 05 0e bf
       -0.30298936 -0.83952093 -0.21557724 -0.554773
000280 f0 76 fb 3d 79 05 92 be 6a 89 0d bf 72 a1 ca be
       0.12278545 -0.285198 -0.552878 -0.39576298
000290 16 b9 64 3e 1a 11 1f 3e 6e a9 6d bf 77 49 41 bf
       0.2233623 0.15533867 -0.92836654 -0.75502723
0002a0 bb 7f f8 be 9d f0 58 be 11 2f 12 bf 87 2b 59 be
       -0.4853495 -0.21185537 -0.5710307 -0.2120801
0002b0 d1 1b 54 be bb 7e 3c bf 08 ad de be b9 4a 44 bf
       -0.20713736 -0.73630875 -0.43491387 -0.7667652
0002c0 4e 74 d8 be fd 6b e4 be 68 25 1f bf cd 3c 54 be
       -0.42276233 -0.4461364 -0.6216645 -0.20726319
0002d0 a3 b6 99 be 3b 5c 97 be 0a 85 00 bf 6d 04 49 be
       -0.30022153 -0.29562554 -0.50203 -0.19630595
0002e0 e6 a1 be be 8a 8a 8d be 22 bb 3e bf 8f 8b dd be
       -0.37232894 -0.2764476 -0.7450429 -0.43270537
0002f0 9c 04 2d be 95 85 81 be 55 68 07 bf 02 94 17 bf
       -0.1689629 -0.25297228 -0.52893573 -0.59210217
000300 9f 08 d1 be 90 b6 4a bf e7 20 d9 be 9b d2 17 bf
       -0.4082689 -0.7918482 -0.42407915 -0.59305733
000310 af 47 49 bf 1c 55 95 be 48 d1 0d bf 8a 3a 05 bf
       -0.78625005 -0.29166496 -0.5539746 -0.5204245
000320 1d e4 02 bf 97 b9 0c bf 1c d1 43 bf 9f ee 44 bf
       -0.51129323 -0.5497069 -0.7649095 -0.76926607
000330 3c 0e b8 be 2c 52 d7 be 17 82 5a bd 35 f4 a4 be
       -0.3594836 -0.4205488 -0.05334672 -0.32217565
000340 9c 14 6b be 79 bb 42 bf 30 59 05 bf 3c dd e3 bd
       -0.2295708 -0.7606731 -0.52089214 -0.111261815
000350 d4 39 aa be ed cd b6 bd 8b ad eb be 47 90 36 bf
       -0.33247244 -0.08925996 -0.4603084 -0.713139
000360 f9 54 ba be e1 03 06 bf 0b 05 0d bf 5a 71 16 bf
       -0.36392954 -0.5234967 -0.5508582 -0.5876671
000370 9f 61 10 bf 05 10 1a bf 61 5c fa be 8f ca ac bc
       -0.5639896 -0.60180694 -0.48898605 -0.021092681
000380 e7 70 e0 be a1 b2 13 bd f9 ef b4 be 20 21 36 bf
       -0.43836138 -0.036059026 -0.35339335 -0.71144295
000390 bf b0 87 be 3b f7 e9 be 55 db 04 bf 67 16 44 bf
       -0.26502034 -0.45696434 -0.51897174 -0.76596683
0003a0 f3 9a 03 be e5 78 26 bf a4 d4 c6 be 32 87 bb be
       -0.12852077 -0.6502822 -0.38834107 -0.36626583
0003b0 68 70 24 bf 35 c9 aa bd 8f 57 2c bf 2d 45 30 bd
       -0.6423402 -0.083391584 -0.67321104 -0.04303472
0003c0 45 1f c7 be b7 b6 82 bf 2d ca 22 bf 3c 61 6d bf
       -0.38891044 -1.021201 -0.63589746 -0.9272649
0003d0 f5 60 eb be 19 d4 cd be 21 3f f8 be d3 10 35 be
       -0.4597241 -0.4020088 -0.48485664 -0.17682199
0003e0 04 a0 4e bf 30 a2 d7 be fe c5 4d bf 50 53 56 bf
       -0.80712914 -0.42115927 -0.8038024 -0.83720875
0003f0 a6 f4 ab be 2b 92 1c bf 28 7b 1e bf e8 2b b1 bc
       -0.3358509 -0.61160535 -0.6190667 -0.021627381

l2.weight f4 [300, 400]
000000 9d c3 52 be 31 e1 53 3f d2 0c 5a be 14 e2 46 be
       -0.20582433 0.8276549 -0.21293953 -0.1942218
000010 79 4b 5d 3e 33 eb 1b bf 45 59 50 be ab 9e 4c 3e
       0.21610822 -0.6090576 -0.20346554 0.19982402
000020 b9 38 f3 be 84 5b 94 be d3 04 86 3d 92 7e e9 bd
       -0.47504213 -0.2897607 0.06543889 -0.114010945
000030 30 2c d2 3d 3f 44 73 3e a1 28 58 be f3 40 db be
       0.10262334 0.23756503 -0.21109249 -0.4282299
000040 ab d7 0b 3f c2 e2 57 bf c0 20 5b 3d 19 d3 54 3e
       0.5462596 -0.8433038 0.05349803 0.20783652
000050 cc aa 1d bf 5d 96 b7 bd 6c 2b 24 3f 7b 7d 51 bf
       -0.6158874 -0.089642264 0.64128757 -0.81832093
000060 d5 4d 02 3e 1d 03 53 3e 1c f7 24 bf 36 32 93 be
       0.12725003 0.20606656 -0.6443956 -0.28749245
000070 a6 0a 8d 3f 65 21 17 3f 74 39 54 bf 9f 05 30 3e
       1.1018875 0.5903533 -0.82900167 0.17189644
000080 6b 10 35 3f 45 7c ed 3c 93 cb a5 3e 77 67 43 bf
       0.70728177 0.02898992 0.32381877 -0.7632975
000090 8f 8d 44 bf aa 9e fa be e0 34 d6 be 1a f3 95 3f
       -0.767785 -0.48949176 -0.41837215 1.1714814
0000a0 1e 5b 0e 3b d4 6a 1b 3d d2 fc 0f 3f 71 28 70 3e
       0.002172179 0.037943676 0.5624515 0.23452927
0000b0 1c 4b 16 bf 04 44 c0 be b3 ad e8 be 1c 75 f6 be
       -0.5870836 -0.37551892 -0.45445022 -0.48136222
0000c0 fd 4a 83 be a3 51 62 bd e4 67 34 be 6f 78 1d bd
       -0.2564315 -0.055253636 -0.17617756 -0.038444933
0000d0 22 31 d5 3d 40 34 3f 3e 8d 5c 41 3e 90 4e d2 3c
       0.10409762 0.18672276 0.18882962 0.025672227
0000e0 f8 a7 5c 3d 9f c4 f8 bd ef 2c 82 be 92 8f 0f 3f
       0.053871125 -0.121468775 -0.25424907 0.56078446
0000f0 6d 48 dc bc 51 b7 2d bf fa dc c0 bb cd 9f c9 be
       -0.026890004 -0.67857844 -0.0058857175 -0.3937973
000100 b0 8a 21 3e f1 f1 88 be c1 13 a6 be 87 34 bc 3e
       0.15775561 -0.26747087 -0.32436946 0.36758825
000110 66 df cb be 46 b4 e0 3e d9 56 46 bd 9a 6c 24 bf
       -0.39818877 0.43887538 -0.048422668 -0.6422821
000120 48 f2 81 3e ec 7e 7a 3f 32 31 1f bf 66 ba 0a be
       0.25380158 0.9784992 -0.6218444 -0.13547668
000130 a5 f4 5f be 6d 4f e1 bd 75 4a a0 be 24 b9 a8 3c
       -0.21870668 -0.110014774 -0.31306806 0.020596094
000140 b2 36 9d be 6d b8 0c be 3f aa 83 bf 7f a5 a9 be
       -0.30705792 -0.13742228 -1.028633 -0.33134076
000150 9f 7d c5 be 10 8f fb bc 74 1f 2f 3b 8a f6 ff 3d
       -0.38572404 -0.030707866 0.0026721628 0.124981955
000160 2f 3e d1 be 95 fe c5 3c 2e 07 2d bf cf 26 dc 3d
       -0.40867755 0.024169246 -0.6758908 0.1074959
000170 01 76 96 3e 8e 2f d3 be d9 16 d4 bc 80 6e d4 be
       0.29386905 -0.4124722 -0.0258898 -0.41490555
000180 a5 e5 5d bd 22 13 13 3f 0a f3 ab bf 42 fb d9 be
       -0.054174084 0.5745107 -1.3433545 -0.42574507
000190 cf 42 20 3e 32 00 58 bd 72 e0 9e 3d 13 7b 2a 3e
       0.15650485 -0.05273456 0.07757653 0.16648512
0001a0 72 d9 4b bf 7a c4 6d bf be 79 f7 be 5c 64 31 bd
       -0.7962867 -0.92877924 -0.4833507 -0.0433086
0001b0 ab 8c 7c 3e 1f f0 3d be 84 08 63 bd bc 2e 91 bf
       0.24663036 -0.1854863 -0.055428043 -1.1342387
0001c0 67 18 b9 be e8 5d 1d be 12 24 39 3d cf 93 85 be
       -0.3615143 -0.15367854 0.045200415 -0.26089332
0001d0 70 86 34 be 6c 38 97 bf 3e b5 1d be 6e 9b e2 3e
       -0.17629409 -1.1814094 -0.1540117 0.44259208
0001e0 cd 47 ed 3e 64 da ee 3e 2e 51 f5 3c dd a1 63 3d
       0.46343842 0.46650994 0.029945936 0.055574287
0001f0 de d6 16 3e 8a fb 8c bb d8 c1 44 bd 19 d9 90 be
       0.14730403 -0.0043024467 -0.048036426 -0.28290632
000200 46 5b 6e 3e 36 82 27 be 02 38 69 be f6 64 98 be
       0.23277006 -0.16358265 -0.22775272 -0.29764527
000210 a1 11 51 be d8 eb 0f 3e ef 43 3b bf 3b fa a7 3e
       -0.20416881 0.14054811 -0.73150533 0.32808098
000220 48 89 1d bc 32 be bd be d3 ce 04 3f 5a 26 85 3e
       -0.00961525 -0.3705917 0.5187809 0.26005822
000230 75 b4 a6 3e a4 e6 04 bf 90 82 0f bd 92 ba 26 3e
       0.32559553 -0.5191443 -0.035036623 0.16282108
000240 cd da 8e 3e 4c d9 fa be de 64 25 bf 86 6c 48 3e
       0.27901307 -0.4899391 -0.64607036 0.19572648
000250 b2 6f 13 bf 0d b5 6c bd 3a a3 35 bf de 22 59 3e
       -0.5759231 -0.05778985 -0.7095219 0.21204707
000260 0e c9 29 3f 90 fb 0c bf 9c fc 54 bf b9 9f a7 3e
       0.6632241 -0.55071354 -0.8319795 0.32739046
000270 e1 2c 1c bf 15 20 56 be 1d 51 2e 3e a4 5b bc be
       -0.6100598 -0.20910676 0.1702313 -0.36788666
000280 d7 e1 1f bf 00 70 3f bf 27 c6 8b bc 55 2c 6d bf
       -0.6245398 -0.74780273 -0.01706226 -0.9264577
000290 53 0a f5 be aa 40 58 be 64 c7 44 3e 22 e1 37 bf
       -0.4785944 -0.21118417 0.19216686 -0.718279
0002a0 f3 e9 d6 be 7e 99 1b 3f 08 88 b9 bd 88 51 75 3d
       -0.41975364 0.60781085 -0.09059149 0.059892207
0002b0 cc fb 15 3f bf 7f fa 3e c3 35 45 be 39 db f2 3d
       0.58587337 0.48925588 -0.1925879 0.1185822
0002c0 27 e7 61 bc b1 1e d7 be fd 16 40 be 9f 84 96 3d
       -0.013788021 -0.42015603 -0.1875877 0.07349514
0002d0 1c 6d e5 be e5 b4 92 bf 90 ea 37 3e 1e 4b fa 3e
       -0.44809806 -1.1461455 0.17960572 0.48885435
0002e0 7c 95 32 be ec ac c0 3e 91 1e 27 bf 95 be 59 3e
       -0.17439836 0.3763193 -0.65281016 0.21264108
0002f0 d4 7d bf be 54 77 57 3e 2d ae 03 3f ce fc c9 bf
       -0.37400687 0.21041614 0.51437646 -1.5780275
000300 87 7c 96 3c 90 10 ea 3d 6a b0 02 bf ba c8 be bd
       0.018369926 0.1142894 -0.51050436 -0.09315629
000310 6a 64 05 3f e5 5e 2f be 24 fb 90 be 9e 07 82 3d
       0.52106345 -0.17126043 -0.28316605 0.06349109
000320 04 6f ae 3e 70 62 bc bd e7 83 82 be ca ea d6 3e
       0.34069073 -0.09198463 -0.25491259 0.41976005
000330 df d2 85 bd b1 81 03 3f a2 d9 4d bf 36 92 0a bf
       -0.06534361 0.5136977 -0.80410206 -0.5412935
000340 1b b7 09 bf cf 42 72 be b5 3e 14 bf 32 04 91 bf
       -0.5379502 -0.23658298 -0.57908183 -1.1329405
000350 6d d2 99 3d 92 96 f3 3e 43 01 95 be 7d 1e 9c bd
       0.07510839 0.47575814 -0.29102525 -0.07623003
000360 ab ac 42 bd 76 e3 33 3e 0f 83 13 3d ed 09 98 bd
       -0.04752795 0.17567238 0.03601366 -0.07423768
000370 28 ed 13 bf 49 fb b2 be 59 c8 82 3e b7 dd 6c bf
       -0.57783747 -0.3495734 0.25543478 -0.9252581
000380 ad 6d 4a bd 3d 22 d4 be 9e 8b 0f 3f 5b f3 10 be
       -0.049421 -0.41432372 0.56072414 -0.14155333
000390 27 a1 ab bd a9 aa 7d be da 33 fa be be 00 f3 be
       -0.08380347 -0.24772133 -0.48867685 -0.47461504
0003a0 03 ec 3e 3e 04 af 5e 3e 9e 6f 78 bd f3 94 90 be
       0.18644719 0.2174645 -0.06065332 -0.2823864
0003b0 e3 93 ab be 3e 57 9c 3d a2 a2 5f be 1b 18 ca bc
       -0.33511266 0.076338276 -0.21839383 -0.024669698
0003c0 2a 52 ca be 77 be 40 3e 15 9e 26 3d a0 d0 cd 3c
       -0.3951581 0.18822657 0.040678103 0.025123894
0003d0 8e ca a5 3e 68 b8 4d 3f 3a 02 09 3f 04 ae f2 be
       0.323811 0.80359507 0.5351902 -0.47398388
0003e0 da 3f 95 be 73 87 c5 bd 18 6e 62 be d9 50 05 bf
       -0.29150277 -0.096449755 -0.2211231 -0.5207649
0003f0 f0 be 43 bd f7 10 2e bd 46 d8 c5 be 0b b3 4f 3d
       -0.047789514 -0.042496648 -0.38641566 0.050707858

l2.bias f4 [300]
000000 c3 11 70 bf 3f 7e 86 be 21 d5 88 bd fb d2 cf be
       -0.937771 -0.26268193 -0.06681276 -0.40590653
000010 91 fe 7e bd 9f 1e 09 be 78 9c c1 bd 1d cf a5 be
       -0.062254492 -0.13390587 -0.09453672 -0.32384577
000020 21 b0 5f 3f 3d be d2 be 7d 05 82 bd 0b 39 3e bf
       0.87378126 -0.41160765 -0.06348703 -0.7430579
000030 6f 48 06 3e 14 f6 30 be 5a 10 e5 bd ca d6 c7 bd
       0.13113569 -0.17281371 -0.111847594 -0.09757765
000040 ac 53 99 be dc 07 28 bd d5 32 73 be e5 27 1f bf
       -0.2994665 -0.04102312 -0.2374986 -0.6217025
000050 43 25 84 be 0c 9f 3d bf e5 ac 92 3e 9e 61 07 3f
       -0.25809678 -0.7407081 0.28647533 0.52883327
000060 cb 00 15 bf bd ab 30 bf 8a eb 2b bf 7b bc 90 3e
       -0.58204335 -0.6901205 -0.6715628 0.282688
000070 bb 2d eb be cc 61 8e bf 02 97 1e bf dc 68 95 bd
       -0.45933327 -1.1123595 -0.6194917 -0.07295391
000080 c1 6f ed bc 1d bc e2 3d b5 2e 48 bf 9d b5 e9 bd
       -0.028983952 0.11071036 -0.7819627 -0.11411593
000090 e4 2a aa bc e0 c6 86 bd 5b 62 2c be 58 9f 07 bf
       -0.020772405 -0.06580901 -0.16834395 -0.52977514
0000a0 65 e6 d5 be 42 54 62 bf 18 2d 09 bf 74 d7 7d 3e
       -0.4177734 -0.8840982 -0.5358443 0.2478922
0000b0 f6 8e ee be 63 dc 15 bd 4b c7 b0 be c0 88 83 bf
       -0.46593446 -0.03658713 -0.34527048 -1.0276108
0000c0 25 e1 2c bf 49 eb 6d bc ed 9b 4b 3d ae e4 7c 3e
       -0.67531043 -0.014521428 0.04970925 0.2469661
0000d0 14 05 f4 be 0a 41 49 bd 88 00 cc 3e a2 51 8d 3e
       -0.47660124 -0.04913429 0.39844155 0.27601343
0000e0 32 bb 13 3f 0b 66 b5 be ca e5 5f be a5 2a f2 be
       0.5770751 -0.35429415 -0.21865001 -0.4729816
0000f0 81 ad f1 bd a3 5d b7 3e f4 73 6a bf 5c 1c 40 3e
       -0.11800671 0.35813627 -0.9158318 0.18760818
000100 48 d3 3a bd 96 ab 06 bf 43 86 12 bf 38 07 04 3f
       -0.04561165 -0.5260557 -0.5723612 0.51573515
000110 5e ae 0b bf 2d 81 a0 bf d1 75 43 bf b4 93 37 be
       -0.5456294 -1.2539421 -0.7635165 -0.17927438
000120 0d cb da 3d 50 7a c1 be c2 61 35 be ec 31 8a bf
       0.1068326 -0.3778863 -0.17713073 -1.0796485
000130 0d e0 b3 be 7a b5 11 bf 63 99 fc 3d 34 e4 7f bf
       -0.35131875 -0.56917536 0.12333944 -0.99957585
000140 c6 7f fe bc 06 13 04 3d d8 75 13 3e 40 63 03 be
       -0.031066786 0.032244705 0.14400423 -0.1283083
000150 1f 86 8c 3e 56 e2 b3 bd c5 f5 f9 3e 50 43 0c be
       0.27446076 -0.087834045 0.4882032 -0.13697553
000160 87 e6 df bd b3 63 9d bf 3d e5 10 bf ec e5 ca be
       -0.109326415 -1.2296051 -0.5659979 -0.3962854
000170 fd df 97 bc c5 37 81 be 73 e0 71 be 00 ed 3b bf
       -0.018539423 -0.2523786 -0.23620777 -0.7340851
000180 d6 c0 40 bf 58 d0 7f be c0 2a ed bc 9b aa 3e be
       -0.75294244 -0.2498182 -0.028951049 -0.18619768
000190 19 6d 04 bf 38 f1 05 bf 91 f9 82 bf ed 3f 89 be
       -0.5172897 -0.52321196 -1.0232412 -0.26806584
0001a0 93 a6 9d 3e ec de 63 be b8 91 e0 3e 4c c1 9a be
       0.3079115 -0.22253007 0.43861175 -0.302256
0001b0 b9 93 58 be bf 53 87 bf 45 fb 0f bf 90 5e 98 bf
       -0.21150102 -1.0572432 -0.5624278 -1.1903858
0001c0 fc d1 74 3d 8d cc 34 be f9 87 0c bf a1 e6 8a bd
       0.05977057 -0.17656155 -0.5489498 -0.0678227
0001d0 05 48 08 bf 0c b9 b0 be 7b 49 aa be 74 fc 08 bf
       -0.53234893 -0.3451618 -0.33259186 -0.5351021
0001e0 31 6f d9 3e 3b d7 bc be cc bb 59 bf 90 49 b0 3d
       0.42467645 -0.36882958 -0.8505218 0.08607781
0001f0 87 14 32 bf 1c 2c 83 bd ed cf e1 be cd 3d 14 3f
       -0.6956257 -0.064048976 -0.44103947 0.579068
000200 2e 8e 05 bf 2f e4 33 be 76 59 66 3e cd ac cd be
       -0.52170074 -0.17567514 0.22495064 -0.401709
000210 af 0f 21 bf 71 9d 28 bf 85 93 32 be fd 5e 93 bf
       -0.62914556 -0.65865237 -0.17439087 -1.1513363
000220 2d d5 f8 be e0 68 ac 3d 21 35 19 bf d3 10 94 bf
       -0.4860014 0.08418441 -0.59846693 -1.1567634
000230 85 a7 82 be d8 36 ed be 72 6e f1 3e 44 94 1c bf
       -0.25518432 -0.46330905 0.47154576 -0.61163735
000240 16 7f 4d bf 2c fc fd be 88 d3 16 bf 42 0e b8 bd
       -0.8027204 -0.49606454 -0.5891652 -0.089870945
000250 9d 7d 6f bf 0f e5 87 be ca 67 08 3f 00 34 45 bf
       -0.93551046 -0.26541945 0.5328337 -0.7703247
000260 4b 31 2c bd 26 a5 10 3c 5c 65 82 bf b1 a8 7d 3e
       -0.042039197 0.008828437 -1.0187182 0.24771382
000270 40 ce 05 3d 5d 18 3f bf aa 87 6d be 98 a7 e2 3e
       0.0326674 -0.7464655 -0.23196283 0.4426849
000280 64 3f e4 3e 40 2e 67 be 96 55 9c 3e 44 95 19 3e
       0.44579613 -0.22576237 0.30534047 0.14998347
000290 a4 f0 fc be c9 26 9b 3e 84 6b 90 bc b5 94 b8 bf
       -0.49402344 0.30303028 -0.017629392 -1.4420382
0002a0 99 00 ce be da 5b e4 be ee 25 34 be e3 c4 10 3f
       -0.4023483 -0.44601327 -0.17592594 0.56550425
0002b0 07 e7 e9 bd 9f 34 77 be 42 da 3f bf dd 75 48 3e
       -0.11421018 -0.24141167 -0.7494241 0.19576211
0002c0 62 e3 e3 bc c9 ea 8f 3e 3e 0c b7 3e 1b cb 00 bf
       -0.027818386 0.28108814 0.35751528 -0.50309914
0002d0 a8 97 ac bc 08 35 cb be ec aa af 3e b8 bd 09 bf
       -0.02106841 -0.39688897 0.3431009 -0.5380511
0002e0 df 22 85 bf ec 36 d6 bd 2f 3f c8 be 19 37 49 be
       -1.0401267 -0.10459694 -0.39110705 -0.19649924
0002f0 b8 08 bd bd 19 e8 3c bf 0c 22 3d bf 8b 57 da bd
       -0.092301786 -0.7379165 -0.73880076 -0.10661229
000300 63 f2 26 bf 69 45 69 bf 8e 16 d6 3c fa 8b 38 bf
       -0.652136 -0.91121536 0.026133802 -0.7208859
000310 d0 8d 23 bf b4 ee 10 3f 29 e1 28 be b7 4f 03 bf
       -0.63888264 0.5661423 -0.16492142 -0.5129351
000320 0c 0e f4 bd c4 83 8e be 8d c1 18 3f 4a 68 a6 be
       -0.11916742 -0.27834904 0.59670335 -0.3250144
000330 62 cb 80 be b7 98 a3 3e 0a dd 43 bd 79 4b 06 be
       -0.2515517 0.3195245 -0.04781822 -0.13114728
000340 f2 88 cf 3e b2 72 51 be 57 fe 18 bf 12 ae 0a be
       0.40534168 -0.20453909 -0.5976309 -0.13542965
000350 4d 53 a1 be a2 d0 60 bf 29 97 0c bf 2c 7e b7 be
       -0.31508866 -0.8781835 -0.5491815 -0.3583845
000360 e6 ef 2c 3e cf 9a ad be 47 1e 0d bf da 97 5a 3f
       0.16888389 -0.33907172 -0.55124325 0.8538796
000370 55 1d 50 bd ae 9f 49 3e 1a d6 24 bd 92 97 94 3e
       -0.050809223 0.19689819 -0.040243246 0.2902189
000380 c9 83 95 be 8c 5b 11 3f f0 a8 b7 bd d7 cc 2b bf
       -0.29202107 0.56780314 -0.08967769 -0.67109436
000390 02 9a 8d 3d 12 95 67 bd f6 cd 87 3e a2 9e b9 be
       0.0691414 -0.05653865 0.26524323 -0.3625384
0003a0 f1 3d ce bd ab 10 f9 be 29 36 5b be 70 bf 17 3e
       -0.10070408 -0.4864553 -0.21407379 0.14819121
0003b0 b0 6c 78 be d0 2b f3 be 5a 4a 26 be 8b a3 8b bd
       -0.24260211 -0.47494364 -0.162393 -0.06818303
0003c0 10 6a 90 3e 3e 49 89 be 03 8a 85 bf 12 d0 09 3d
       0.2820592 -0.26813692 -1.0432743 0.033645697
0003d0 2e 57 7d 3e aa 21 32 bf d4 f4 ae 3a bf 6c 48 bf
       0.24740288 -0.6958262 0.0013348111 -0.78290933
0003e0 77 ec 6b be 38 94 5b bf cf d9 60 bf a2 67 9c bf
       -0.23039423 -0.8577304 -0.8783235 -1.2219126
0003f0 4c 99 0e be 07 d7 8f be cf 1b 67 be 62 ff 07 be
       -0.13925666 -0.2809374 -0.22569202 -0.13281015

l3.weight f4 [8, 300]
000000 3a 3c d9 3d 70 43 46 3b 81 ae 83 bd 87 60 aa 3c
       0.106071904 0.0030252598 -0.06429768 0.020797981
000010 ba 7c 37 3d 37 3f 3f 3d ba 41 27 3e 6c bf 1c bb
       0.044796683 0.046691146 0.16333666 -0.0023917807
000020 49 a2 37 3d 58 a8 d2 be fc 8c 07 3d 83 6c f3 3d
       0.0448325 -0.4114406 0.033093438 0.11885931
000030 ca f5 04 bd de c1 2f 3e 06 e9 c3 bc 16 50 58 3d
       -0.032460965 0.17163798 -0.023914825 0.05281075
000040 67 e4 93 3e 2d 62 41 bd d4 4a 14 3d a6 0a 70 bb
       0.28885195 -0.04721277 0.036204174 -0.003662744
000050 7d 39 2d 3e 5b 69 68 3d ca f4 d5 3c 7d c6 b0 3c
       0.16916461 0.0567411 0.026117701 0.021579022
000060 7c 72 04 3d 27 c6 2b bf 80 4f d0 be d4 83 bb be
       0.032335743 -0.6709923 -0.40685654 -0.36624014
000070 a8 1c d5 3e b0 c9 9f 3c e6 5c 00 be 89 43 ae bd
       0.41623425 0.019505352 -0.12535438 -0.08508975
000080 90 ec ba bc 48 61 85 bc 23 b5 55 3e d0 69 0f 3d
       -0.02281788 -0.016281739 0.2086988 0.03501302
000090 36 89 f7 bc a1 64 73 3c 35 3f 60 3d 89 fc 00 3d
       -0.030216794 0.014855535 0.05474778 0.031490836
0000a0 8d 6e 68 3b 4a 27 cd 3e f4 36 8f 3e a6 02 0e 3e
       0.0035466284 0.40069038 0.27971613 0.13868198
0000b0 f0 18 58 3d 58 50 1c 3d b4 68 c4 3c c1 78 f1 3d
       0.052758157 0.03816256 0.023975708 0.1179061
0000c0 41 20 12 be 98 75 f7 3d 4d 8a 08 bd 0a 8f 5f be
       -0.14270116 0.12082976 -0.03333502 -0.21831909
0000d0 26 1b 1f 3d d3 de 55 bd c8 41 87 3c 26 6a a7 3c
       0.03884425 -0.052214455 0.01651086 0.020436358
0000e0 d1 44 1c 3c 68 68 7f be 9b ad 1c be 32 4c 33 3e
       0.0095378915 -0.24942172 -0.153006 0.17509535
0000f0 cb 95 ae 3d 53 27 ac be 61 29 33 3d 82 40 3b 3d
       0.085246645 -0.33623752 0.043740634 0.045715816
000100 33 5c 92 3a 7a fb 40 3d 67 49 83 be 03 38 19 3c
       0.0011166394 0.047114827 -0.2564194 0.009351733
000110 67 04 f9 bd 31 d7 ef 3d 44 a7 ea 3c 8f 38 29 3d
       -0.12159043 0.117109664 0.028644212 0.041313704
000120 66 4b f2 bd bd 95 7a 3c 0a a6 6e 3d 53 ac 85 3e
       -0.11830787 0.015294489 0.058263816 0.26108035
000130 22 de 90 bc 5f 73 44 bd 75 44 32 3d dd da 18 3d
       -0.017684046 -0.04796159 0.043522317 0.0373181
000140 5d 79 bd bb 27 32 75 3d f6 2f af bd 98 7d 01 bd
       -0.00578229 0.059862282 -0.0855407 -0.031613916
000150 b9 2e 4d 3b 49 07 14 3d a0 0a 2d bb 58 75 4e bd
       0.0031308366 0.03613976 -0.0026404038 -0.050404876
000160 28 da 61 3d cb 87 98 be eb 11 f0 bc 17 f0 52 3d
       0.05513969 -0.29791102 -0.029305419 0.0514985
000170 1c 89 eb 3d c3 d7 20 bd 8d dc 42 3d 00 51 77 be
       0.11500761 -0.039268266 0.047573615 -0.24151993
000180 be 90 50 3d e1 25 8b 3c 71 00 b2 3d b2 4b d5 bc
       0.050919287 0.016985836 0.086914904 -0.02603707
000190 a5 49 15 3d cf 8e 0b 3e 37 88 2d bd 15 37 55 be
       0.036447186 0.13628696 -0.042366233 -0.20821793
0001a0 67 44 9d bc eb 79 cc 3e 07 40 36 3c b7 ea 22 3e
       -0.019197656 0.39936766 0.011123664 0.15909849
0001b0 63 ab 96 3d 5f b4 91 3d 85 39 0c 3e 60 11 1d be
       0.07356908 0.07114481 0.13693817 -0.1533866
0001c0 5c ae a4 3c dc 48 94 bc bd 84 85 3d f6 55 e8 3e
       0.020102672 -0.018101148 0.065194584 0.45378083
0001d0 39 0f e0 3c 99 31 63 be 87 c1 76 bd a1 a5 c0 3d
       0.027351009 -0.22186889 -0.060243156 0.09406591
0001e0 f5 11 58 3d 2e 8a 36 3d 9b a9 46 3d c0 02 b7 3d
       0.0527515 0.044565372 0.048501592 0.089360714
0001f0 a0 b1 d8 3d 18 87 db 3c fc 01 37 bd a0 31 f0 bc
       0.10580754 0.026797816 -0.044679627 -0.029320538
000200 88 a7 2b bf 3b dc 35 be 00 e3 93 bb ab 07 92 bb
       -0.6705251 -0.17759793 -0.0045131445 -0.0044564805
000210 20 84 f7 bd 72 87 bf 3c 2b a5 d2 bd ba 15 3e be
       -0.12085748 0.023380015 -0.102854095 -0.18562976
000220 11 77 16 bd 79 19 d4 3c ef f2 bf 3d 91 d7 de be
       -0.036734644 0.025891053 0.09372508 -0.4352384
000230 84 04 df 3d e4 ed 6d 3e 42 de a1 bd 0c 9b 9a bd
       0.10889533 0.2323528 -0.079037204 -0.07549104
000240 11 56 83 3c 47 3c 0c bd 94 94 20 bf 1b 04 cf 3c
       0.01603225 -0.034237172 -0.6272671 0.025270512
000250 66 8f 64 3d 0a 19 78 be 04 66 15 bd 23 c0 5b 3e
       0.055800818 -0.24228302 -0.036474243 0.21460013
000260 6e cf fa 3d 30 81 7f bd 54 90 10 3e 10 30 15 bc
       0.12246595 -0.062379062 0.14117557 -0.009105697
000270 a5 40 11 3d b4 14 2b be 6c ef c1 bc 08 33 0b 3d
       0.03546204 -0.16707116 -0.023673736 0.033984214
000280 7a 24 1e bd 26 13 82 bd 82 55 5c bd 77 40 01 be
       -0.038609006 -0.063513085 -0.053792484 -0.12622248
000290 50 92 fc bd 58 08 33 3e 2e 5c 7d 3d 9e b0 8c 3d
       -0.123325944 0.17483652 0.061855488 0.068696246
0002a0 2e 3f 28 3e db 99 a8 bd 63 5f 3f bc 00 d6 22 bd
       0.16430351 -0.082324706 -0.011680457 -0.039754868
0002b0 7b bb d6 3c 7a 04 82 be 93 7a 66 bd ce ac 12 bd
       0.026212445 -0.2539404 -0.05626924 -0.03580933
0002c0 5e 84 0a be 1c e4 00 3c 6b 02 9b 3c 7a 35 1d 3c
       -0.13527057 0.0078668855 0.018922051 0.009595269
0002d0 40 d7 7b 3d f2 d8 36 3d 4f 74 7b 3d 6d 7d 8b bd
       0.061484575 0.04464049 0.061390217 -0.068110324
0002e0 0a 52 4d bd db 88 81 bd a0 99 eb 3c 02 36 6d bd
       -0.050127067 -0.06324931 0.028759778 -0.057912834
0002f0 7d ee 7b 3d 6f 28 6e 3b 76 29 c6 bd 2d 5b 81 3d
       0.061506737 0.0036340018 -0.09675877 0.063162185
000300 40 c0 9f ba bc fa 0f bf 4f 1d 62 3c 8a da ff be
       -0.0012188032 -0.56241965 0.013800933 -0.4997142
000310 96 5a b0 be 3d fe 34 3d e3 2d 93 3e 16 45 e5 3c
       -0.34444112 0.044187773 0.28745946 0.027987044
000320 db fb ff 3c fc 55 91 3c e8 50 86 3c a9 19 4e 3b
       0.031248024 0.017741196 0.016396001 0.00314484
000330 22 5f 80 3e 9e 50 4a bc ad a8 b1 3d 63 ec 5f be
       0.2507258 -0.012348322 0.086747505 -0.21867518
000340 2d ce 91 bc bf e0 81 3d 70 78 04 be 3e 7b ae b8
       -0.017798508 0.06341695 -0.12936568 -8.319922e-05
000350 24 e6 86 3b 90 5c 28 3e 3d b0 51 bf 76 ef 53 bd
       0.0041167904 0.1644156 -0.81909543 -0.05174204
000360 7c 44 97 3c 30 c3 22 3e 28 87 78 3e 53 b7 e5 bd
       0.018465273 0.1589477 0.24270308 -0.11216607
000370 eb ab 9e bc 2d a2 ff bc ef f1 11 bd 09 9a 5f 3d
       -0.019369086 -0.031205261 -0.035631116 0.05459026
000380 11 db 7c 3e e2 62 59 bd 4c a5 87 3d 3e dc 22 bd
       0.24692942 -0.053072818 0.06623325 -0.03976082
000390 7e e7 0d 3c b7 d1 c3 bd c6 5d c9 be 6e 43 55 3d
       0.008661149 -0.09561484 -0.39329356 0.05206626
0003a0 f5 c7 76 3e 41 a7 39 be 51 bd e3 be 91 01 c4 bc
       0.24099715 -0.18130209 -0.44480374 -0.023926528
0003b0 5a 91 5c bd 1e 79 b8 3d 9a 89 2b bb 78 15 d7 3c
       -0.053849556 0.09007476 -0.0026174546 0.026255354
0003c0 d4 ca 2a 3e 18 54 61 bd ec 1c a7 3e 29 7d 97 bd
       0.16678935 -0.05501184 0.32639253 -0.07396919
0003d0 62 96 cd 3d 03 63 c1 be ea 29 6b bc ae 6b 30 bf
       0.10038449 -0.37770852 -0.014353255 -0.68914306
0003e0 34 be 21 3d 55 7d 27 bd 6a 43 5a 3e f4 2f b9 3d
       0.039488032 -0.04089101 0.21314779 0.090423495
0003f0 9e b3 06 bc 93 b5 9b be 22 05 ef 3c 0c 5d 6f 3e
       -0.008221535 -0.30411968 0.029177252 0.23375338

l3.bias f4 [8]
000000 e7 77 8d be c0 c8 97 3d 7f dc 8a bd 27 82 74 3e
       -0.2763054 0.07411337 -0.067803375 0.23877774
000010 fb 06 92 bc e3 43 0c 3e 5a a3 dc bd 70 3a d2 3d
       -0.017825594 0.13697772 -0.10773344 0.10265052
